…
<timm.data.random_erasing.RandomErasing object at 0x7f93daf6ea00>
---------------------------
reading from datapath /home/yangtao/data/imagenet
Number of the class = 1000
Transform = 
Resize(size=256, interpolation=bicubic)
CenterCrop(size=(224, 224))
ToTensor()
Normalize(mean=(0.485, 0.456, 0.406), std=(0.229, 0.224, 0.225))
---------------------------
reading from datapath /home/yangtao/data/imagenet
Number of the class = 1000
Sampler_train = <torch.utils.data.distributed.DistributedSampler object at 0x7f93daf6e490>
Mixup is activated!
Using EMA with decay = 0.99990000
Model = ConvNeXt(
  (downsample_layers): ModuleList(
    (0): Sequential(
      (0): Conv2d(3, 48, kernel_size=(4, 4), stride=(4, 4))
      (1): LayerNorm()
    )
    (1): Sequential(
      (0): LayerNorm()
      (1): Conv2d(48, 96, kernel_size=(2, 2), stride=(2, 2))
    )
    (2): Sequential(
      (0): LayerNorm()
      (1): Conv2d(96, 192, kernel_size=(2, 2), stride=(2, 2))
    )
    (3): Sequential(
      (0): LayerNorm()
      (1): Conv2d(192, 384, kernel_size=(2, 2), stride=(2, 2))
    )
  )
  (stages): ModuleList(
    (0): Sequential(
      (0): Block(
        (dwconv): Conv2d(48, 48, kernel_size=(7, 7), stride=(1, 1), padding=(3, 3), groups=48)
        (norm): LayerNorm()
        (pwconv1): Linear(in_features=48, out_features=192, bias=True)
        (act): GELU()
        (pwconv2): Linear(in_features=192, out_features=48, bias=True)
        (drop_path): Identity()
      )
      (1): Block(
        (dwconv): Conv2d(48, 48, kernel_size=(7, 7), stride=(1, 1), padding=(3, 3), groups=48)
        (norm): LayerNorm()
        (pwconv1): Linear(in_features=48, out_features=192, bias=True)
        (act): GELU()
        (pwconv2): Linear(in_features=192, out_features=48, bias=True)
        (drop_path): DropPath()
      )
      (2): Block(
        (dwconv): Conv2d(48, 48, kernel_size=(7, 7), stride=(1, 1), padding=(3, 3), groups=48)
        (norm): LayerNorm()
        (pwconv1): Linear(in_features=48, out_features=192, bias=True)
        (act): GELU()
        (pwconv2): Linear(in_features=192, out_features=48, bias=True)
        (drop_path): DropPath()
      )
    )
    (1): Sequential(
      (0): Block(
        (dwconv): Conv2d(96, 96, kernel_size=(7, 7), stride=(1, 1), padding=(3, 3), groups=96)
        (norm): LayerNorm()
        (pwconv1): Linear(in_features=96, out_features=384, bias=True)
        (act): GELU()
        (pwconv2): Linear(in_features=384, out_features=96, bias=True)
        (drop_path): DropPath()
      )
      (1): Block(
        (dwconv): Conv2d(96, 96, kernel_size=(7, 7), stride=(1, 1), padding=(3, 3), groups=96)
        (norm): LayerNorm()
        (pwconv1): Linear(in_features=96, out_features=384, bias=True)
        (act): GELU()
        (pwconv2): Linear(in_features=384, out_features=96, bias=True)
        (drop_path): DropPath()
      )
      (2): Block(
        (dwconv): Conv2d(96, 96, kernel_size=(7, 7), stride=(1, 1), padding=(3, 3), groups=96)
        (norm): LayerNorm()
        (pwconv1): Linear(in_features=96, out_features=384, bias=True)
        (act): GELU()
        (pwconv2): Linear(in_features=384, out_features=96, bias=True)
        (drop_path): DropPath()
      )
    )
    (2): Sequential(
      (0): Block(
        (dwconv): Conv2d(192, 192, kernel_size=(7, 7), stride=(1, 1), padding=(3, 3), groups=192)
        (norm): LayerNorm()
        (pwconv1): Linear(in_features=192, out_features=768, bias=True)
        (act): GELU()
        (pwconv2): Linear(in_features=768, out_features=192, bias=True)
        (drop_path): DropPath()
      )
      (1): Block(
        (dwconv): Conv2d(192, 192, kernel_size=(7, 7), stride=(1, 1), padding=(3, 3), groups=192)
        (norm): LayerNorm()
        (pwconv1): Linear(in_features=192, out_features=768, bias=True)
        (act): GELU()
        (pwconv2): Linear(in_features=768, out_features=192, bias=True)
        (drop_path): DropPath()
      )
      (2): Block(
        (dwconv): Conv2d(192, 192, kernel_size=(7, 7), stride=(1, 1), padding=(3, 3), groups=192)
        (norm): LayerNorm()
        (pwconv1): Linear(in_features=192, out_features=768, bias=True)
        (act): GELU()
        (pwconv2): Linear(in_features=768, out_features=192, bias=True)
        (drop_path): DropPath()
      )
      (3): Block(
        (dwconv): Conv2d(192, 192, kernel_size=(7, 7), stride=(1, 1), padding=(3, 3), groups=192)
        (norm): LayerNorm()
        (pwconv1): Linear(in_features=192, out_features=768, bias=True)
        (act): GELU()
        (pwconv2): Linear(in_features=768, out_features=192, bias=True)
        (drop_path): DropPath()
      )
      (4): Block(
        (dwconv): Conv2d(192, 192, kernel_size=(7, 7), stride=(1, 1), padding=(3, 3), groups=192)
        (norm): LayerNorm()
        (pwconv1): Linear(in_features=192, out_features=768, bias=True)
        (act): GELU()
        (pwconv2): Linear(in_features=768, out_features=192, bias=True)
        (drop_path): DropPath()
      )
      (5): Block(
        (dwconv): Conv2d(192, 192, kernel_size=(7, 7), stride=(1, 1), padding=(3, 3), groups=192)
        (norm): LayerNorm()
        (pwconv1): Linear(in_features=192, out_features=768, bias=True)
        (act): GELU()
        (pwconv2): Linear(in_features=768, out_features=192, bias=True)
        (drop_path): DropPath()
      )
      (6): Block(
        (dwconv): Conv2d(192, 192, kernel_size=(7, 7), stride=(1, 1), padding=(3, 3), groups=192)
        (norm): LayerNorm()
        (pwconv1): Linear(in_features=192, out_features=768, bias=True)
        (act): GELU()
        (pwconv2): Linear(in_features=768, out_features=192, bias=True)
        (drop_path): DropPath()
      )
      (7): Block(
        (dwconv): Conv2d(192, 192, kernel_size=(7, 7), stride=(1, 1), padding=(3, 3), groups=192)
        (norm): LayerNorm()
        (pwconv1): Linear(in_features=192, out_features=768, bias=True)
        (act): GELU()
        (pwconv2): Linear(in_features=768, out_features=192, bias=True)
        (drop_path): DropPath()
      )
      (8): Block(
        (dwconv): Conv2d(192, 192, kernel_size=(7, 7), stride=(1, 1), padding=(3, 3), groups=192)
        (norm): LayerNorm()
        (pwconv1): Linear(in_features=192, out_features=768, bias=True)
        (act): GELU()
        (pwconv2): Linear(in_features=768, out_features=192, bias=True)
        (drop_path): DropPath()
      )
    )
    (3): Sequential(
      (0): Block(
        (dwconv): Conv2d(384, 384, kernel_size=(7, 7), stride=(1, 1), padding=(3, 3), groups=384)
        (norm): LayerNorm()
        (pwconv1): Linear(in_features=384, out_features=1536, bias=True)
        (act): GELU()
        (pwconv2): Linear(in_features=1536, out_features=384, bias=True)
        (drop_path): DropPath()
      )
      (1): Block(
        (dwconv): Conv2d(384, 384, kernel_size=(7, 7), stride=(1, 1), padding=(3, 3), groups=384)
        (norm): LayerNorm()
        (pwconv1): Linear(in_features=384, out_features=1536, bias=True)
        (act): GELU()
        (pwconv2): Linear(in_features=1536, out_features=384, bias=True)
        (drop_path): DropPath()
      )
      (2): Block(
        (dwconv): Conv2d(384, 384, kernel_size=(7, 7), stride=(1, 1), padding=(3, 3), groups=384)
        (norm): LayerNorm()
        (pwconv1): Linear(in_features=384, out_features=1536, bias=True)
        (act): GELU()
        (pwconv2): Linear(in_features=1536, out_features=384, bias=True)
        (drop_path): DropPath()
      )
    )
  )
  (norm): LayerNorm((384,), eps=1e-06, elementwise_affine=True)
  (head): Linear(in_features=384, out_features=1000, bias=True)
)
number of params: 7438360
LR = 0.00400000
Batch size = 4096
Update frequent = 4
Number of training examples = 1281167
Number of training training per epoch = 312
Param groups = {
  "decay": {
    "weight_decay": 0.05,
    "params": [
      "downsample_layers.0.0.weight",
      "downsample_layers.1.1.weight",
      "downsample_layers.2.1.weight",
      "downsample_layers.3.1.weight",
…
